app/modelo_entrenado/autoencoder_model.pth (torch, 3360 bytes, 4 tensors)

encoder.0.weight f4 [10, 14]
-0.14745228 -0.62500477 1.0314125 -0.18010561 -0.82978916 -0.05240142 0.0216534 -0.10078882
-0.14406021 -0.16634856 0.5667597 0.06880092 1.3108318 1.3874 2.375316 -0.53133404
-0.7109344 0.7985237 -0.42918205 -0.034577914 0.092410594 -0.018452235 -0.09266139 -0.35924795
-1.3740017 0.35986105 0.30185848 0.39886856 -0.16400051 -0.4783457 -1.3484211 -0.22627984
1.2891842 -0.21212763 0.011375724 -0.29022256 -0.30588454 -0.7730496 0.7886725 -0.0478953
0.5692499 0.76316226 -0.09536164 -0.33187374 -0.97960585 -0.14685515 -0.8399666 -0.19065674
-0.01648426 2.155901 -0.28793007 -0.5733185 0.48818362 -0.15675716 0.4463751 0.1996528
-0.07372857 -0.39011768 -0.9819194 -0.1194361 -0.9498342 2.6166713 -0.024654578 -0.22569057
-0.2551247 -0.573587 0.49875134 -0.077658124 0.29889566 0.29394802 -0.07941404 -0.3317064
-0.9609185 -0.1787744 -0.88107127 -0.1757 -0.022502623 -0.22656937 2.0083802 -0.57504433
0.5602361 -0.09006257 0.37152684 0.2783119 -0.3227203 2.1846414 -0.6624221 0.6923192
-0.42261168 0.055976734 0.17255223 -0.030334163 -0.02514736 -0.37260485 -1.1271434 0.22174573
0.8436942 0.81057924 -0.05250752 -0.27609366 -0.6968999 -0.122789815 -0.71628666 -0.13237885
2.3257332 -0.1520114 -0.20729889 0.54093736 0.428415 0.057587393 0.02070787 0.24941602
-0.10529116 -0.10794838 -0.6512878 -0.25606465 -1.3628688 -0.5796334 -0.32999068 -0.6319415
-0.6843466 -0.7537092 0.623109 -0.07577183 0.11860285 -0.26220387 -0.50624263 -0.66184187
-0.35830578 0.88604 -0.18957454 -0.030306391 0.06263304 -0.022239065 -0.0107617695 -0.22721602
-3.3409042 0.04321522 0.035818864 0.13953401
00000000: bbfd 16be 5000 20bf 5305 843f 9b6d 38be
00000010: 106d 54bf dfa2 56bd 7962 b13c 5e6a cebd
00000020: 8584 13be 4757 2abe 2a17 113f 7fe7 8c3d
00000030: 56c9 a73f 5396 b13f 2d05 1840 8205 08bf
00000040: ccff 35bf 0d6c 4c3f c0bd dbbe 92a1 0dbd
00000050: c441 bd3d 2429 97bc 41c5 bdbd 59ef b7be
00000060: 4adf afbf b53f b83e 328d 9a3e 8038 cc3e
00000070: c0ef 27be bae9 f4be 1099 acbf e7b5 67be
00000080: fd03 a53f fc37 59be 3f61 3a3c 0d98 94be
00000090: e69c 9cbe 94e6 45bf 71e6 493f dd2d 44bd
000000a0: 5dba 113f 9a5e 433f f74c c3bd 5beb a9be
000000b0: 73c7 7abf 3261 16be 0d08 57bf 853b 43be
000000c0: 000a 87bc 48fa 0940 926b 93be 00c5 12bf
000000d0: 34f3 f93e f384 20be 478b e43e c971 4c3e
000000e0: 01ff 96bd 81bd c7be 125f 7bbf ea9a f4bd
000000f0: 5628 73bf 8b77 2740 66f8 c9bc 6e1b 67be
00000100: b49f 82be 99d6 12bf 565c ff3e 390b 9fbd
00000110: da08 993e 5b80 963e d4a3 a2bd 6cd5 a9be
00000120: c1fe 75bf a310 37be e38d 61bf b3ea 33be
00000130: 6c57 b8bc cd01 68be 4d89 0040 1b36 13bf
00000140: a26b 0f3f ba72 b8bd c438 be3e e67e 8e3e
00000150: 983b a5be 2ad1 0b40 7f94 29bf d53b 313f
00000160: 8f60 d8be dc47 653d 88b1 303e 5a7f f8bc
00000170: d601 cebc 10c6 bebe 3c46 90bf 5011 633e
00000180: 58fc 573f 1f82 4f3f 2012 57bd 265c 8dbe
00000190: 0868 32bf 3a79 fbbd 905e 37bf 528e 07be
000001a0: d0d8 1440 e0a8 1bbe 2946 54be df7a 0a3f
000001b0: 3659 db3e c2e0 6b3d 8da3 a93c ea66 7f3e
000001c0: e4a2 d7bd 0a14 ddbd ccba 26bf e81a 83be
000001d0: 7c72 aebf db62 14bf 8af4 a8be ebc6 21bf
000001e0: 5731 2fbf 16f3 40bf 1284 1f3f 432e 9bbd
000001f0: 0de6 f23d 963f 86be 1e99 01bf 786e 29bf
00000200: db73 b7be 84d3 623f d41f 42be 1c45 f8bc
00000210: c045 803d b32e b6bc 2252 30bc 51ab 68be
00000220: 60d1 55c0 7102 313d cdb6 123d 01e2 0e3e

encoder.0.bias f4 [10]
1.2979778 1.7196931 1.6273112 1.7788872 1.6297593 1.7438961 1.5947226 1.2005343
1.7879704 2.173659
00000000: 2324 a63f e71e dc3f bc4b d03f 93b2 e33f
00000010: f49b d03f fd37 df3f df1f cc3f 1cab 993f
00000020: 37dc e43f 3b1d 0b40

decoder.0.weight f4 [14, 10]
-0.30839333 2.7531543 -0.3713579 -0.20687664 -0.16997936 -0.21726295 -0.6446751 -0.17129448
-0.21248306 -1.6559144 -0.87483174 -0.60977584 -0.73282397 -0.26875484 -0.20237355 -0.3038109
2.1950617 -0.24366546 0.005167729 -1.1909393 1.4012692 -0.2087797 -0.98647255 -0.5883226
-0.47692016 -0.65184325 -0.21786587 -0.50765556 -0.62313336 -0.045495242 -0.104530305 0.9498549
-0.66966414 -0.4153831 -0.37643048 -0.52425593 1.0239434 -0.45315275 -0.9000047 1.1836646
-0.42767328 -0.14382651 1.4110197 -0.5616176 -0.48323235 -0.6876143 -0.1636778 -0.48860028
-1.4040455 -0.017597703 -0.14887956 -0.14317085 -0.76336056 -0.6681907 3.0173163 -0.7956305
-0.055276595 -0.53845143 -1.9875506 -0.060627162 -0.1152796 -0.035502806 -0.15422148 -0.19969867
-0.20693208 -0.24367271 0.03430494 2.3024569 -0.76416683 0.031670127 -0.17257974 -0.11572075
-0.7206434 2.5069566 -0.41045818 -0.55213183 -0.10439706 -0.42328018 -1.4658835 -0.035174437
-0.21746714 -0.13907725 -0.7312846 -0.5113381 -0.42068726 2.474634 -0.05167596 -0.44402444
-1.4869337 -0.0132130245 -0.008577537 -0.1072215 -0.64857596 -0.33893263 -0.24645314 -0.36101836
-0.15090072 0.60388637 -0.67511 -0.07598406 0.16384697 -0.7433821 0.64639777 0.22518912
0.19533601 0.30603048 -0.6145691 0.2312912 0.40972888 -6.781946 -0.11197839 1.0094817
-0.66096437 -0.49958372 -0.4286787 -0.60395056 1.2423036 -0.5131933 -0.8870802 1.5686451
0.9107379 0.20910992 0.4042899 0.01603371 -0.03577765 0.031022077 0.5606422 -0.055823226
-0.3885816 0.14266074 1.1406015 0.090520136 0.523503 0.07785536 -0.012173505 0.07491268
0.54783946 -0.043595415 -0.37802926 -0.11171127
00000000: bbe5 9dbe ae33 3040 9f22 bebe 78d7 53be
00000010: 120f 2ebe 2e7a 5ebe 6d09 25bf d267 2fbe
00000020: 2995 59be 01f5 d3bf f9f4 5fbf 451a 1cbf
00000030: 5a9a 3bbf 3c9a 89be 033b 4fbe 1a8d 9bbe
00000040: e47b 0c40 7083 79be 0e56 a93b b370 98bf
00000050: ca5c b33f 58ca 55be 7789 7cbf 4f9c 16bf
00000060: e12e f4be 33df 26bf 3b18 5fbe b7f5 01bf
00000070: ab85 1fbf 3859 3abd fc13 d6bd b129 733f
00000080: 1c6f 2bbf 18ad d4be 7fbb c0be a335 06bf
00000090: 9410 833f a303 e8be b566 66bf 5282 973f
000000a0: fef7 dabe 4247 13be 4b9c b43f 2cc6 0fbf
000000b0: 3b6a f7be 7e07 30bf 279b 27be d129 fabe
000000c0: c3b7 b3bf 0f29 90bc e273 18be 619b 12be
000000d0: 996b 43bf 8c0e 2bbf b61b 4140 71ae 4bbf
000000e0: b669 62bd f4d7 09bf 0f68 febf 3054 78bd
000000f0: b617 ecbd 646b 11bd 3cec 1dbe cf7d 4cbe
00000100: 01e6 53be 5785 79be 5683 0c3d 745b 1340
00000110: 70a0 43bf 89b8 013d beb8 30be 00ff ecbd
00000120: 167c 38bf fa71 2040 9327 d2be 8358 0dbf
00000130: 20ce d5bd 2eb8 d8be 12a2 bbbf 1213 10bd
00000140: b5af 5ebe 446a 0ebe 7835 3bbf 0ee7 02bf
00000150: 5264 d7be 6760 1e40 2caa 53bd 2c57 e3be
00000160: d853 bebf 717b 58bc cc88 0cbc f296 dbbd
00000170: 1309 26bf 9488 adbe 365e 7cbe 66d7 b8be
00000180: b885 1abe 4c98 1a3f 02d4 2cbf 889d 9bbd
00000190: 80c7 273e 4a4e 3ebf 537a 253f fa97 663e
000001a0: 2a06 483e 07b0 9c3e 6754 1dbf 9ad7 6c3e
000001b0: fcc7 d13e b405 d9c0 ed54 e5bd b236 813f
000001c0: f634 29bf 70c9 ffbe c67b dbbe 819c 1abf
000001d0: ce03 9f3f a360 03bf b017 63bf 5dc9 c83f
000001e0: 1e26 693f e920 563e 16ff ce3e 2159 833c
000001f0: 968b 12bd 0322 fe3c 3f86 0f3f e5a6 64bd
00000200: 2bf4 c6be a815 123e 3bff 913f 9f62 b93d
00000210: 4b04 063f a272 9f3d 6173 47bc d26b 993d
00000220: 353f 0c3f 1b91 32bd 0d8d c1be e1c8 e4bd

decoder.0.bias f4 [14]
-0.88238454 1.1979162 2.6795928 -4.1002803 3.0794642 -1.6590005 -3.4398737 -1.2557179
-0.94334006 0.87812614 -0.965101 -4.5585523 -5.567026 -5.3496437
00000000: f4e3 61bf 5155 993f 737e 2b40 7f35 83c0
00000010: f115 4540 215a d4bf e426 5cc0 5dbb a0bf
00000020: bc7e 71bf e0cc 603f dc10 77bf a9df 91c0
00000030: 1425 b2c0 4830 abc0
